data/models/mpiigaze/resnet_preact/model.pth (torch, 645358 bytes, 64 tensors)

conv.weight f4 [16, 1, 3, 3]
-0.07128569 -0.0021483786 0.077043794 -0.05977454 0.029506296 0.13725677 -0.05825819 -0.05045338
0.085070334 -0.05904378 -0.019165598 0.12834783 -0.11188986 -0.0661897 0.109805554 -0.06812683
-0.07398694 0.009508089 0.046849165 0.13989191 0.17048627 -0.05114044 -0.011332711 -0.013725038
-0.05831448 -0.07779296 -0.10791204 0.022541484 0.0041492325 0.017474798 0.023936985 0.0034289858
-0.013719161 0.031248007 0.021345474 -0.017482368 0.09347718 -0.019136759 -0.05103452 0.07543669
0.031497695 0.022098405 0.006280505 -0.017155575 -0.01950047 -0.0075481217 -0.0666787 -0.06725182
-0.023662334 -0.04684047 -0.0175264 0.006947495 0.03044463 0.007299487 0.009780194 -0.009121856
-0.0015280672 -0.0029284717 -0.08577352 -0.076671585 0.0114906095 0.013698054 -0.006178543 -0.032401305
-0.01011365 0.038995408 0.06748454 0.04753997 -0.0022909704 0.04604951 0.01848671 -0.034772754
0.060988285 -0.05089562 -0.080543466 -0.11471859 -0.1107222 -0.066069506 0.07321973 0.12839219
0.115747385 0.11223201 0.039870325 0.056317214 0.04651491 -0.07229088 -0.12309514 0.026487172
-0.06325041 -0.09575868 0.013444205 -0.03315095 0.031001128 -0.008817756 -0.0033950964 0.06580966
-0.032007817 0.011711303 0.08530724 -0.010101963 -0.046264783 -0.015622573 -0.07064986 -0.048402485
0.0084142 -0.034362663 0.02221298 0.021523375 -0.052646764 -0.05832218 -0.05512848 0.092034645
0.057823084 -0.07542987 0.1256879 0.02530209 -0.08757557 0.026002845 0.06556495 0.007275874
-0.0098209325 0.025759412 -0.027144024 -0.032422695 0.030466555 0.020367233 0.070890665 -0.076634996
-0.08938697 0.12226338 -0.021228196 -0.09188055 0.09274873 -0.034286752 -0.06611638 0.00047977816
-0.030769425 -0.014341969 -0.026080145 -0.051534384 -0.007935067 -0.02302697 -0.009424413 0.04875445
00000000: 3bfe 91bd d0cb 0cbb 23c9 9d3d 26d6 74bd
00000010: 30b7 f13c 0a8d 0c3e 24a0 6ebd 34a8 4ebd
00000020: 5b39 ae3d e4d7 71bd 2c01 9dbc 9d6d 033e
00000030: 8326 e5bd 778e 87bd bce1 e03d 1486 8bbd
00000040: 7786 97bd d1c7 1b3c e9e4 3f3d d33f 0f3e
00000050: f493 2e3e a378 51bd d6ac 39bc fbde 60bc
00000060: 2adb 6ebd ea51 9fbd fd00 ddbd eba8 b83c
00000070: 49f6 873b 4f27 8f3c 7f17 c43c d6b8 603b
00000080: 55c6 60bc d2fb ff3c b4dc ae3c 2f37 8fbc
00000090: f770 bf3d b1c4 9cbc 9309 51bd 8d7e 9a3d
000000a0: ba03 013d b707 b53c b2cc cd3b d989 8cbc
000000b0: 73bf 9fbc 3c56 f7bb d88e 88bd 52bb 89bd
000000c0: 83d7 c1bc cbdb 3fbd 8693 8fbc d0a7 e33b
000000d0: 0467 f93c 8930 ef3b 1b3d 203c d673 15bc
000000e0: 6d49 c8ba 9aeb 3fbb 07aa afbd fe05 9dbd
000000f0: 1c43 3c3c cd6d 603c 6075 cabb 3bb7 04bd
00000100: b9b3 25bc a6b9 1f3d 5635 8a3d 46b9 423d
00000110: 1b24 16bb 699e 3c3d 7171 973c e06d 0ebd
00000120: dace 793d ed77 50bd f9f3 a4bd 95f1 eabd
00000130: 52c2 e2bd 734f 87bd 3af4 953d 3e79 033e
00000140: f70c ed3d e5d9 e53d 114f 233d e1ac 663d
00000150: 6b86 3e3d 3e0d 94bd 4e19 fcbd a0fb d83c
00000160: 6e89 81bd 201d c4bd 1545 5c3c 4ac9 07bd
00000170: 14f6 fd3c 5978 10bc 4480 5ebb 37c7 863d
00000180: a11a 03bd c4e0 3f3c 90b5 ae3d b482 25bc
00000190: 2480 3dbd d2f5 7fbc e0b0 90bd af41 46bd
000001a0: b6db 093c ddbf 0cbd fff7 b53c ca51 b03c
000001b0: 22a4 57bd 3de3 6ebd 67ce 61bd a97c bc3d
000001c0: e6d7 6c3d fa7a 9abd 54b4 003e 5446 cf3c
000001d0: d25a b3bd eb03 d53c eb46 863d 746a ee3b
000001e0: fae7 20bc 6705 d33c 255d debc a9cd 04bd
000001f0: ff94 f93c 2fd9 a63c 202f 913d cff2 9cbd
00000200: 8410 b7bd 3965 fa3d c1e6 adbc df2b bcbd
00000210: 0cf3 bd3d 4470 0cbd 0668 87bd bc8a fb39
00000220: 2910 fcbc 94fa 6abc 07a6 d5bc b815 53bd
00000230: 1502 02bc 0ea3 bcbc da68 1abc bfb2 473d

stage1.block1.bn1.weight f4 [16]
0.07330255 0.08550525 0.09988319 0.040681977 0.078897506 0.10372291 0.11072124 0.06393117
0.10502862 0.071030475 0.11866118 0.12392372 0.0537624 0.07645704 0.07151171 0.038139973
00000000: a61f 963d 601d af3d 8f8f cc3d 25a2 263d
00000010: 0495 a13d ad6c d43d d1c1 e23d 58ee 823d
00000020: 3f19 d73d 6d78 913d a204 f33d b8cb fd3d
00000030: f635 5c3d 8295 9c3d bb74 923d a938 1c3d

stage1.block1.bn1.bias f4 [16]
0.0068990234 -0.0015580759 0.000990727 -0.025438908 -0.01698723 -0.091380626 -0.07386704 -0.020807356
0.0146464035 0.028545793 -0.10411608 -0.12467904 0.048809387 -0.07663072 0.009753579 0.00513906
00000000: 3411 e23b 5a38 ccba 48db 813a 4265 d0bc
00000010: ce28 8bbc c425 bbbd 9a47 97bd 3074 aabc
00000020: 78f7 6f3c ded8 e93c d03a d5bd b957 ffbd
00000030: 5aec 473d 91f0 9cbd 7acd 1f3c 8f65 a83b

stage1.block1.bn1.running_mean f4 [16]
0.043951586 -0.07474284 0.01518193 0.04480864 0.060234673 -0.09038686 -0.07441161 0.069124706
-0.026177494 -0.040157203 0.06323987 -0.08519504 -0.011649959 0.05150534 -0.046475038 -0.056712076
00000000: 9406 343d c612 99bd a1bd 783c 4489 373d
00000010: a2b8 763d bf1c b9bd 1d65 98bd 4191 8d3d
00000020: 2f72 d6bc e17b 24bd e883 813d bd7a aebd
00000030: 78df 3ebc 43f7 523d 9c5c 3ebd ec4a 68bd

stage1.block1.bn1.running_var f4 [16]
0.0021178422 0.0036902712 0.004520836 0.0006730552 0.0015513973 0.0030016357 0.0018780743 0.0015572214
0.003190411 0.0025057597 0.0015591647 0.0024703578 0.0016618778 0.0009393316 0.0023743503 0.0011169001
00000000: 7fcb 0a3b 7ad8 713b 8523 943b f86f 303a
00000010: 4158 cb3a 17b7 443b b729 f63a ae1b cc3a
00000020: 3716 513b ac37 243b e35c cc3a bae5 213b
00000030: 5ed3 d93a 7a3d 763a fd9a 1b3b f364 923a

stage1.block1.conv1.weight f4 [16, 16, 3, 3]
-0.027807744 -0.0019732772 -0.002864795 -0.029222269 -0.0143007515 -0.023422731 -0.0037275697 0.0025394217
-0.02685031 -0.02037505 -0.003943289 -0.004594757 -0.021041062 -0.011038393 0.0037809096 -0.0175877
-0.01730621 -0.006754407 -0.014088086 0.011362033 0.031903494 -0.023263732 -0.027732145 -0.01715335
-0.0171562 -0.03955814 -0.050333206 0.026711617 0.0050402186 -0.0059766104 0.02535827 0.0049745496
-0.009126268 0.019907145 -0.0014550358 -0.004262819 0.029754946 -0.011135842 -0.02007233 0.06277343
0.004720913 -0.02436159 0.05523846 0.021157974 -0.0027753122 -0.0047469144 -0.005525306 -0.006698057
-0.006528131 -0.0014726669 -0.011917615 0.0055573266 0.0021431348 0.001380002 -0.004567737 -0.009655467
-0.011847012 0.00021647991 -0.0001167841 -0.0027892785 0.005039502 0.0008233594 -0.0007328526 0.032572307
-0.0010570375 -0.040456656 0.0242088 0.00091688405 -0.016065503 0.02324599 0.0064703426 -0.0053442577
-0.006517738 0.0012990743 0.015565578 -0.026213184 -0.019674849 -0.017028844 -0.028372996 -0.028537093
-0.030062022 0.005237866 -0.010934951 -0.014033877 0.014041295 0.0033962077 0.0048564044 -0.0019448461
-0.009746512 -0.015958283 0.005759095 -0.003647406 -0.028224109 0.021826811 0.008129774 -0.024273353
0.030873492 0.009359339 -0.029315215 -0.0027597162 -0.0014199596 0.003957251 0.005925863 0.005728284
0.003195738 0.009756011 0.011610399 0.004412478 0.034776136 -0.001987536 -0.01523048 0.0012793014
-0.003785021 0.011010691 0.0012048172 -0.0041892263 0.02032349 0.0059260973 -0.0052832756 -0.009143229
0.0018618501 -0.015320525 -0.026046187 0.018317824 0.0064095026 -0.011686325 -0.0017798131 -0.026377408
-0.032559104 -0.013425554 -0.02081229 -0.024752883 -0.0069401492 -0.018772116 -0.009384445 -0.015085728
-0.012801644 -0.004384094 -0.0149845965 -0.0192204 -0.013821343 -0.007802352 -0.014959286 -0.009300311
0.03002409 0.012144844 0.009602098 0.004609439 0.0003506893 -0.0144864265 -0.0056135515 -0.03352406
-0.038456894 -0.015430325 -0.0230359 0.0015139892 0.008070674 -0.014096505 0.009523247 0.06377308
0.020287061 0.028335778 0.057219688 0.033652063 0.024365239 0.019143488 0.008762902 0.015509396
-0.017013568 -4.846201e-05 -0.003453556 0.0064714444 0.014053156 0.017213048 -0.016390104 -0.0049507055
-0.00020855964 -0.005533769 -0.0042203777 -0.007988413 0.028517453 0.04737395 0.043905176 -0.025742413
0.00064318586 0.010141382 -0.026602594 -0.022022283 -0.019109044 -0.0037365477 -0.0015079849 -0.015866999
-0.002161687 -0.008731157 -0.011233464 -0.002933123 0.0004976723 -0.0069716647 -0.013014531 -0.02027928
-0.038927805 -0.004533541 -0.004259281 -0.021336332 0.0021610365 0.025869837 0.009771868 -0.0016478451
0.01682872 0.015459939 -0.02548446 -0.011015641 -0.013051596 -0.014940138 -0.0127110025 -0.027396085
-0.016818242 -0.015419759 -0.033616215 -0.004680645 -0.0039791143 -0.025324313 -0.002312618 0.012903733
0.0004947973 0.015164316 0.015008876 -0.0063200877 -0.018763242 -0.010087074 -0.025545828 6.278713e-05
0.028247219 0.018535111 0.030909013 0.04466872 0.011042057 -0.01358246 -0.007821556 -0.021572152
-0.025573434 -0.028459273 -0.032620817 -0.0063455924 -0.014205957 -0.006530024 0.0060588676 -0.0033499422
-0.005380465 0.010606183 0.0041787787 0.014896416 -0.041136682 -0.032207258 -0.031625878 0.0023452705
00000000: 11cd e3bc 1952 01bb 49bf 3bbb 8a63 efbc
00000010: b34d 6abc 07e1 bfbc 3e4a 74bb 6d6c 263b
00000020: 2ef5 dbbc 94e9 a6bc b536 81bb 9e8f 96bb
00000030: 4e5e acbc 60da 34bc 23c9 773b 1514 90bc
00000040: c1c5 8dbc 1354 ddbb b7d1 66bc d227 3a3c
00000050: 3dad 023d 9593 bebc 862e e3bc 2f85 8cbc
00000060: 298b 8cbc b707 22bd 312a 4ebd 52d2 da3c
00000070: 6b28 a53b 71d7 c3bb 26bc cf3c 8c01 a33b
00000080: 5886 15bc 4f14 a33c e6b6 beba 1eaf 8bbb
00000090: a5c0 f33c 1b73 36bc ba6e a4bc 5b8f 803d
000000a0: e3b1 9a3b f591 c7bc b941 623d 7d53 ad3c
000000b0: 03e2 35bb 018c 9bbb a00d b5bb 607b dbbb
000000c0: efe9 d5bb 8006 c1ba 1a42 43bc 3c1a b63b
000000d0: d673 0c3b 2fe1 b43a f5ac 95bb f731 1ebc
000000e0: f819 42bc e2fe 6239 fce9 f4b8 54cc 36bb
000000f0: 6822 a53b b7d6 573a e81c 40ba 8a6a 053d
00000100: 4b8c 8aba e1b5 25bd 8951 c63c 0c5b 703a
00000110: cd9b 83bc 606e be3c 2b05 d43b e21e afbb
00000120: c092 d5bb b345 aa3a c406 7f3c 08bd d6bc
00000130: 262d a1bc 1380 8bbc 7c6e e8bc 9fc6 e9bc
00000140: a144 f6bc 68a2 ab3b 8228 33bc 59ee 65bc
00000150: 760d 663c e992 5e3b 7922 9f3b 35ea feba
00000160: d6af 1fbc f2ba 82bc cab6 bc3b 5109 6fbb
00000170: 3f36 e7bc 24ce b23c be32 053c e9d8 c6bc
00000180: 68ea fc3c ea57 193c 7626 f0bc 5bdc 34bb
00000190: f01d baba d4ab 813b be2d c23b 54b4 bb3b
000001a0: 966f 513b add7 1f3c 8b39 3e3c 8c96 903b
000001b0: 6c71 0e3d 5241 02bb 4389 79bc 3bae a73a
000001c0: 1d0e 78bb 2f66 343c f5ea 9d3a c745 89bb
000001d0: 737d a63c b52f c23b 541f adbb 7bcd 15bc
000001e0: 5309 f43a f002 7bbc d05e d5bc 430f 963c
000001f0: ce06 d23b 0078 3fbc 9e48 e9ba 6f15 d8bc
00000200: b25c 05bd dbf6 5bbc 897e aabc 8fc6 cabc
00000210: 316a e3bb fbc7 99bc 37c1 19bc 212a 77bc
00000220: fdbd 51bc 72a8 8fbb f481 75bc 1a74 9dbc
00000230: ea72 62bc dfaa ffbb cb17 75bc 5560 18bc
00000240: 15f5 f53c 2bfb 463c 1e52 1d3c c70a 973b
00000250: b9dc b739 7a58 6dbc e2f1 b7bb 8650 09bd
00000260: fa84 1dbd 79cf 7cbc c9b5 bcbc 0c71 c63a
00000270: dc3a 043c 07f5 66bc 6507 1c3c 769b 823d
00000280: 0d31 a63c 6f20 e83c 315f 6a3d bfd6 093d
00000290: 9c99 c73c ced2 9c3c 4692 0f3c 1f1b 7e3c
000002a0: 0a60 8bbc b043 4bb8 0e55 62bb 690e d43b
000002b0: 353f 663c 6102 8d3c 8a44 86bc 8739 a2bb
000002c0: cdb0 5ab9 9e54 b5bb 184b 8abb d5e1 02bc
000002d0: 6f9d e93c 300b 423d ead5 333d c1e1 d2bc
000002e0: 799b 283a 0a28 263c afed d9bc 1368 b4bc
000002f0: 928a 9cbc dee0 74bb 94a7 c5ba 82fb 81bc
00000300: 17ab 0dbb 200d 0fbc 900c 38bc a339 40bb
00000310: 3976 023a 9072 e4bb e63a 55bc bc20 a6bc
00000320: c372 1fbd 198e 94bb 7091 8bbb 88c9 aebc
00000330: 2da0 0d3b fbec d33c 2f1a 203c 82fc d7ba
00000340: 62dc 893c af4b 7d3c c9c4 d0bc f27a 34bc
00000350: 5cd6 55bc 7bc7 74bc cf41 50bc c16d e0bc
00000360: 69c6 89bc 28a3 7cbc 28b1 09bd 1960 99bb
00000370: 3b63 82bb ef74 cfbc 4b8f 17bb 2e6a 533c
00000380: 49b5 013a c073 783c cae7 753c bd18 cfbb
00000390: 5fb5 99bc 4144 25bc 7c45 d1bc 95ac 8338
000003a0: b666 e73c f2d6 973c e634 fd3c 8cf6 363d
000003b0: bee9 343c f788 5ebc fc25 00bc 15b8 b0bc
000003c0: 617f d1bc 6c23 e9bc 689d 05bd b0ee cfbb
000003d0: 1ac0 68bc d0f9 d5bb 7789 c63b b48a 5bbb
000003e0: 9d4e b0bb 8ec5 2d3c 23ee 883b 1910 743c
000003f0: f07e 28bd c2eb 03bd 238a 01bd 1cb3 193b

stage1.block1.bn2.weight f4 [16]
0.14474475 0.16238876 0.17603196 0.1376534 0.15104438 0.15152712 0.17325905 0.16104755
0.10083627 0.1678073 0.15314904 0.12188468 0.14358583 0.13582991 0.13111119 0.124537036
00000000: f837 143e 3d49 263e b941 343e 03f5 0c3e
00000010: 61ab 1a3e ed29 1b3e d26a 313e a6e9 243e
00000020: 3f83 ce3d add5 2b3e 1ad3 1c3e ad9e f93d
00000030: 2a08 133e ff16 0b3e 0342 063e 460d ff3d

stage1.block1.bn2.bias f4 [16]
0.0037953802 0.02243898 -0.024594782 0.042869583 0.058718614 0.033932067 0.030005459 -0.028845739
0.023363825 0.0012731827 0.010089948 0.020476123 0.013810307 0.0071091196 0.04175964 -0.0030381675
00000000: eabb 783b f4d1 b73c ff7a c9bc 0498 2f3d
00000010: ee82 703d 5afc 0a3d 02ce f53c e64d ecbc
00000020: 7e65 bf3c ece0 a63a 4f50 253c 8bbd a73c
00000030: a044 623c 9ef3 e83b 280c 2b3d fe1b 47bb

stage1.block1.bn2.running_mean f4 [16]
-0.019598069 -0.007082308 0.009370298 -0.007733588 -0.01639387 -0.009044943 -0.0025200243 0.008918547
-0.012162357 0.0055068284 7.538026e-05 -0.012858255 -0.031501107 0.013746787 -0.018165164 0.020677108
00000000: 218c a0bc b512 e8bb e185 193c 0a6a fdbb
00000010: 704c 86bc 3e31 14bc fe26 25bb 191f 123c
00000020: 9f44 47bc a072 b43b 7815 9e38 6eab 52bc
00000030: 4e07 01bd 343a 613c 1ccf 94bc 0a63 a93c

stage1.block1.bn2.running_var f4 [16]
0.00022335521 0.00032941456 0.00037615874 0.000114150105 0.00025985914 0.00020190884 0.00025561533 0.00014632032
0.00011517047 0.00027732496 0.00018973091 0.00015557098 0.00023460112 0.00012945072 0.000188162 0.00036250704
00000000: 7534 6a39 46b5 ac39 2c37 c539 df63 ef38
00000010: b43d 8839 7eb7 5339 1c04 8639 906d 1939
00000020: ad87 f138 ed65 9139 81f2 4639 c420 2339
00000030: 42ff 7539 2abd 0739 5a4d 4539 df0e be39

stage1.block1.conv2.weight f4 [16, 16, 3, 3]
-0.04435817 -0.038304925 -0.01628051 -0.035337716 -0.035087418 -0.020798517 -0.031275157 -0.026126651
-0.00867238 0.027061865 0.021592585 0.010934845 0.02046367 0.018084634 0.012076795 0.013637915
0.01760509 0.02215254 -0.00073274795 -0.001915321 -0.006917224 0.00014971604 0.0053043724 0.013165928
0.008930353 -0.0054810788 3.6005335e-05 0.036055826 0.027505938 0.029656468 0.033718713 0.03096271
0.020819841 0.035011362 0.01126015 0.010559504 0.02943158 -0.0044582267 -0.017333593 0.051586334
0.007869166 0.0007842 0.016002042 -0.0047400133 -0.0062207696 -0.013889206 0.019100716 0.023032798
-0.021247936 0.018041985 0.0142547125 0.002002164 0.024189942 0.028731437 -0.0047726505 0.0046269028
-0.00920778 -0.006564319 0.0018881515 -0.011983559 0.010622621 0.013432315 0.009179136 0.0023415147
-0.013735022 -0.015711572 0.010687094 0.00028050362 0.0038013442 -0.0007395527 0.002553918 -0.00520537
0.008176053 0.0018059469 0.0065476946 0.0002520376 5.059272e-05 0.011665508 0.0012409079 0.00906953
0.013934294 0.04001888 0.0055645993 -0.039015286 0.024414672 -0.017218584 -0.03741956 0.016830536
-0.014927682 -0.033370703 -0.00504811 -0.0032194506 0.018800473 -0.0075255637 -0.013066178 0.0027279668
-0.014136548 -0.018436791 0.00727119 0.006111215 -0.0036009168 -0.0066561927 -0.015203708 -0.02648254
-0.017731903 0.00077484624 -0.017424064 -0.012939973 0.019629305 -0.015216869 0.0036270323 0.009443035
-0.026615301 -0.012275618 -0.0011655716 -0.022582563 -0.0058773765 -0.015599148 0.008407606 -0.001809215
-0.015514154 0.006778237 -0.012128105 0.017306563 0.029498523 0.003584403 0.030727599 0.023400292
0.011572807 0.022703419 0.017390547 -0.0073734466 0.011905501 -0.0041003954 -0.034989543 -0.008179137
2.1090671e-05 0.00755428 -0.0008065225 -6.9310496e-05 0.0086689545 0.0021127884 0.009618294 0.014154727
0.021561913 0.0032052551 0.0005054209 0.029595124 -0.009957436 -0.010277272 0.04340165 0.005225887
-0.012594006 0.029301401 0.02614028 0.0016115806 -0.0145972865 0.0046369894 0.002064802 -0.014423502
0.012509607 0.027381897 -0.010670866 -0.012733009 -0.05341988 0.012219005 0.02726944 0.014760597
0.011862496 0.04978389 0.04992194 -0.004954466 0.016764833 0.010123881 -0.028552188 -0.0003876499
-0.005839849 -0.00536293 -0.016033387 -0.016515663 -0.0039038844 -0.0073715476 -0.0051992717 -0.0122783035
0.011940687 0.004043484 -0.023757955 0.0033172048 0.028119572 -0.024415145 -0.032877855 -0.046773046
-0.017007109 -0.012887621 -0.051468648 0.01027912 0.016947173 -0.037943304 -0.0036885678 -0.025674688
-0.040868763 0.030622024 -0.018853558 -0.041909713 0.06078135 0.027982915 -0.019508157 0.016096653
-0.0015288518 -0.036032777 0.012856441 0.031466532 -0.0023036473 -0.0032196837 0.04734048 0.032198783
-0.0018803973 0.002440596 -0.023525123 -0.00011398932 0.012950724 0.0054361476 -0.0015890123 0.023544496
0.013943744 -0.03701089 -0.018731346 0.030744875 -0.037666906 -0.018771164 0.054062214 -0.056141403
-0.02458767 0.049480855 -0.014816939 -0.009062838 -0.01185648 -0.0064507313 -0.009391102 -0.017073123
-0.012344956 0.0027949715 -0.0067234756 -0.030036947 0.0039762594 0.0025739137 -0.015344561 0.0026417647
-0.003885902 -0.023150122 0.0042608613 -0.009359957 -0.0008552755 0.014778399 0.030672371 0.0034615665
00000000: eab0 35bd a0e5 1cbd b45e 85bc 48be 10bd
00000010: d3b7 0fbd a761 aabc 611a 00bd 8f07 d6bc
00000020: 9916 0ebc d8b0 dd3c efe2 b03c 1028 333c
00000030: 6da3 a73c 3a26 943c c0dd 453c 9071 5f3c
00000040: 8d38 903c 3e79 b53c e215 40ba 820b fbba
00000050: e1a9 e2bb 18fd 1c39 4dd0 ad3b e8b5 573c
00000060: 9e50 123c 9f9a b3bb 6f04 1738 46af 133d
00000070: 2254 e13c 1ff2 f23c a21c 0a3d 82a5 fd3c
00000080: 5f8e aa3c 1368 0f3d 7e7c 383c c501 2d3c
00000090: 7f1a f13c 5116 92bb 2eff 8dbc 314c 533d
000000a0: aded 003c c592 4d3a b716 833c 1d52 9bbb
000000b0: 99d7 cbbb 8d8f 63bc 1b79 9c3c 47af bc3c
000000c0: 2710 aebc c9cc 933c 998c 693c bd36 033b
000000d0: fc29 c63c 315e eb3c e563 9cbb 469d 973b
000000e0: 3adc 16bc 8019 d7bb da7b f73a b056 44bc
000000f0: 800a 2e3c 3613 5c3c 1664 163c 1974 193b
00000100: dc08 61bc 8eb5 80bc ec18 2f3c 8f10 9339
00000110: f91f 793b 8bde 41ba a25f 273b cf91 aabb
00000120: daf4 053c 86b5 ec3a 0b8e d63b ea23 8439
00000130: 8533 5438 b020 3f3c f6a5 a23a 5e98 143c
00000140: aa4c 643c d6ea 233d 3e57 b63b 7ece 1fbd
00000150: 4701 c83c fd0d 8dbc 4145 19bd 31e0 893c
00000160: 3c93 74bc b8af 08bd 9e6a a5bb 6bfd 52bb
00000170: 7303 9a3c 0199 f6bb 8613 56bc b0c7 323b
00000180: fb9c 67bc c108 97bc 2a43 ee3b 9640 c83b
00000190: 5cfd 6bbb 311c dabb f918 79bc e9f1 d8bc
000001a0: 7f42 91bc 0d1f 4b3a e9bc 8ebc 2e02 54bc
000001b0: a3cd a03c 2d50 79bc 81b3 6d3b f6b6 1a3c
000001c0: 5508 dabc ac1f 49bc 18c6 98ba 11ff b8bc
000001d0: 0297 c0bb 9293 7fbc 0ec0 093c 2f23 edba
000001e0: 142f 7ebc f91b de3b f6b4 46bc 7ec6 8d3c
000001f0: e3a6 f13c 4ee8 6a3b 72b8 fb3c f8b1 bf3c
00000200: df9b 3d3c 85fc b93c 9f76 8e3c f49c f1bb
00000210: 4a0f 433c 9c5c 86bb 3251 0fbd c901 06bc
00000220: dfeb b037 e589 f73b cf6c 53ba ca5a 91b8
00000230: 3b08 0e3c b576 0a3b 0d96 1d3c 3ae9 673c
00000240: 9ca2 b03c 420f 523b 397e 043a 7971 f23c
00000250: 8324 23bc 0162 28bc eec5 313d eb3d ab3b
00000260: 1757 4ebc 7e09 f03c 2424 d63c ac3b d33a
00000270: 7529 6fbc e3f1 973b a151 073b 8d50 6cbc
00000280: 18f5 4c3c 0050 e03c dbd4 2ebc 1c9e 50bc
00000290: cece 5abd 3932 483c 2964 df3c 6ed6 713c
000002a0: ea5a 423c 31ea 4b3d f37a 4c3d 1359 a2bb
000002b0: 6756 893c a2de 253c 47e6 e9bc 7d3d cbb9
000002c0: 345c bfbb 84bb afbb 7358 83bc db4b 87bc
000002d0: 50d8 7fbb 068d f1bb a75e aabb f02a 49bc
000002e0: dfa2 433c 347f 843b 0ba0 c2bc 7665 593b
000002f0: 045b e63c 4502 c8bc eeaa 06bd 1895 3fbd
00000300: 7e52 8bbc 9a26 53bc cad0 52bd c169 283c
00000310: ccd4 8a3c 706a 1bbd e6bb 71bb b953 d2bc
00000320: 0166 27bd 0adb fa3c c772 9abc 85a9 2bbd
00000330: ddf5 783d 6d3c e53c 92cf 9fbc 21dd 833c
00000340: c163 c8ba 1b97 13bd d2a3 523c 0de3 003d
00000350: caf8 16bb 5401 53bb 17e8 413d dfe2 033d
00000360: aa77 f6ba 68f2 1f3b c2b7 c0bc 8d0d efb8
00000370: 462f 543c b621 b23b 6846 d0ba 63e0 c03c
00000380: 4d74 643c bb98 17bd 7b72 99bc addc fb3c
00000390: 9d48 1abd fcc5 99bc 5770 5d3d 87f4 65bd
000003a0: 156c c9bc 70ac 4a3d bfc2 72bc 4c7c 14bc
000003b0: ae41 42bc a860 d3bb 23dd 19bc efdc 8bbc
000003c0: 8042 4abc d72b 373b 9a50 dcbb 0b10 f6bc
000003d0: 484b 823b 1baf 283b c167 7bbc 7521 2d3b
000003e0: 9eaa 7ebb 53a5 bdbc b29e 8b3b 815a 19bc
000003f0: 9134 60ba 1921 723c a044 fb3c 73db 623b

stage2.block1.bn1.weight f4 [16]
0.10073565 0.13337992 0.11280225 0.08075635 0.12281894 0.096000746 0.0922318 0.09125558
0.11031999 0.090529405 0.10374864 0.13392903 0.12171109 0.10086679 0.11987492 0.11379815
00000000: 7e4e ce3d bf94 083e de04 e73d 9663 a53d
00000010: 7f88 fb3d 0a9c c43d 07e4 bc3d 35e4 ba3d
00000020: 72ef e13d 7b67 b93d 2b7a d43d b124 093e
00000030: aa43 f93d 3f93 ce3d fb80 f53d 010f e93d

stage2.block1.bn1.bias f4 [16]
-0.010656069 -0.027223585 0.018417299 0.003960303 -0.006365973 0.01342254 -6.236363e-05 -0.003583404
-0.03680981 0.012247949 0.02314046 -0.00461479 -0.03597183 -0.011263526 -0.026300447 0.011461208
00000000: cb96 2ebc ff03 dfbc e0df 963c 6ec5 813b
00000010: a799 d0bb 37ea 5b3c 38c9 82b8 8bd7 6abb
00000020: e2c5 16bd 9fab 483c 1091 bd3c aa37 97bb
00000030: 3357 13bd a78a 38bc 0974 d7bc cac7 3b3c

stage2.block1.bn1.running_mean f4 [16]
0.05353089 0.029244386 -0.0032007443 0.038349986 0.004241987 -0.015402099 0.01919238 0.025752624
0.10158857 0.007142768 -0.0033948296 -0.05250564 0.051351715 -0.0018779556 0.033285826 -0.005818402
00000000: 3543 5b3d ec91 ef3c 94c3 51bb e014 1d3d
00000010: 5e00 8b3b 1659 7cbc 5739 9d3c 2bf7 d23c
00000020: ab0d d03d e10d ea3b ca7b 5ebb 2710 57bd
00000030: 2d56 523d bc25 f6ba b856 083d 4ba8 bebb

stage2.block1.bn1.running_var f4 [16]
0.0038878769 0.0041384283 0.005131545 0.0026411964 0.0042333263 0.0025352554 0.0022315902 0.001682649
0.005121044 0.0029526148 0.0031010085 0.0022628026 0.0028606597 0.0020292867 0.0032025655 0.0034044953
00000000: c0cb 7e3b a79b 873b 8526 a83b ec17 2d3b
00000010: b7b7 8a3b 8726 263b df3f 123b 558c dc3a
00000020: 6ece a73b a880 413b 4a3a 4b3b 874b 143b
00000030: e879 3b3b c8fd 043b 22e2 513b f41d 5f3b

stage2.block1.conv1.weight f4 [32, 16, 3, 3]
0.020700302 0.002607995 0.012144049 0.018263819 0.003560025 0.028563054 0.017037803 0.024532929
0.004181576 -5.6703702e-05 0.011110713 0.006738894 -0.012562203 -0.0037882028 0.009361909 -0.004534473
0.004725552 0.022725351 -0.017966274 -0.023236057 0.0038020273 -0.023011237 -0.029297015 0.010425349
-0.014093283 -0.02298001 0.011590905 -0.014297736 -0.023488594 -0.018137919 0.0046137488 -0.015937606
-0.015238339 0.025460485 -0.001950411 0.0089249015 -0.031415727 -0.016756596 0.028296137 -0.047897883
-0.047305487 -0.009412448 -0.046107553 -0.033722036 -0.0041213166 0.015318867 0.0030514677 -0.02353175
0.0132110175 0.0076064193 -0.02697346 -0.02496795 -0.021532279 -0.025719803 0.007362025 -0.021937953
-0.008094643 0.021506118 -0.017836316 -0.028717155 0.031212263 -0.008854892 -0.021013295 0.0072172843
-0.011466099 -0.0043178163 -0.023115402 -0.01457368 0.0103897145 -0.010125218 -0.0055713695 0.0017243713
-0.041468848 -0.024795406 -0.0065079695 -0.033886004 -0.0137556335 0.014446617 -0.0034299511 -0.0062964526
0.022799391 0.0057487166 0.0007649678 0.00517849 0.0035003456 0.011062624 0.008482807 0.0046494594
0.0010749033 0.024019666 -0.012972785 -0.00850097 0.011732673 -0.0066298395 0.0070497836 0.022327945
0.008500202 0.009262957 -0.009430269 -0.020312175 -0.036286864 -0.023958351 -0.004553027 -0.01572701
0.008480094 -0.012161762 0.007722634 0.022684539 0.0047395043 0.016494548 0.0063353875 0.007842761
0.0055058035 0.0005063243 0.027015809 0.020745944 0.0068771644 -0.01271417 -0.020112751 -0.014824333
-0.034536976 -0.019281762 -0.0152552305 -0.030975038 0.0005232313 0.016066896 -0.011868912 -0.008992947
0.0032666551 -0.005584971 -0.011630936 -0.014915728 0.025814034 0.016568989 -0.00083653495 0.008678634
-0.010097321 -0.01743347 -0.008185264 -0.028321063 -0.024800917 -0.0021170871 -0.0159194 -0.016911063
0.031686183 0.040150426 0.016528502 0.016230574 0.00026759438 0.0057729334 -0.011080624 -0.03804028
-0.019285386 0.012793558 0.011911131 -0.00014518911 0.0028764105 -0.007319234 -0.011131365 -0.048221823
-0.040143635 -0.024962462 0.013776223 0.016726816 -0.0005973074 0.005291718 0.026232895 0.007944518
-0.0043097814 0.025672527 0.0170693 -0.012907167 -0.006054613 0.01177072 -0.004497704 0.009084611
0.01995243 -0.005058551 -0.0019861853 0.021074228 -0.0063903457 0.008527787 0.04498127 -0.014605961
-0.007686001 0.023387646 -0.009395194 -0.013123632 0.024298817 -0.02198267 -0.01940549 0.011045981
-0.010041065 -0.011301836 0.022767961 -0.017775033 -0.0006360122 0.023922859 0.0066998326 0.0072964146
-0.016098846 -0.0023172896 0.009827881 -0.0069413055 0.0068720593 0.013182804 -0.001734744 -0.024918362
-0.0032237782 -0.008510131 -0.002449363 -0.0073463577 0.0070162113 1.6471471e-05 -0.0076309144 -0.0106739625
-0.026633332 -0.02754378 -0.020736374 -0.010495909 -0.0038866494 0.0053048185 -0.011181299 -0.01927773
-0.010403891 -0.01491909 -0.0058138547 -0.008551254 0.005411887 -0.002316574 -0.0026820402 0.003430072
-0.0009943331 -0.014556904 0.009549573 0.013463124 0.012306513 0.005687395 0.0086224 -0.0057159346
0.013616709 0.007954826 0.0053078206 -0.024808882 -0.033672884 0.0030288913 -0.001728035 -0.010908195
0.000428224 0.01062387 -0.009628316 -0.008222631 -0.014189661 -0.017051809 -0.0012699903 -0.00088185986
00000000: ae93 a93c e5ea 2a3b d5f7 463c 019e 953c
00000010: 4f4f 693b 11fd e93c dd92 8b3c 48f9 c83c
00000020: 9a05 893b 23d5 6db8 b509 363c f1d1 dc3b
00000030: b3d1 4dbc 7f43 78bb b162 193c eb95 94bb
00000040: ced8 9a3b 842a ba3c 022e 93bc 8b59 bebc
00000050: 6f2b 793b 1082 bcbc 4b00 f0bc 15cf 2a3c
00000060: 83e7 66bc 9340 bcbc c7e7 3d3c 0d41 6abc
00000070: 276b c0bc f995 94bc ee2e 973b 958f 82bc
00000080: 3aaa 79bc 8292 d03c efa4 ffba c039 123c
00000090: c7ad 00bd 2145 89bc 4dcd e73c 9230 44bd
000000a0: 66c3 41bd ab36 1abc 46db 3cbd 1e20 0abd
000000b0: 1c0c 87bb fcfb 7a3c 22fb 473b a8c5 c0bc
000000c0: 0673 583c 453f f93b 72f7 dcbc 9689 ccbc
000000d0: 7664 b0bc 56b2 d2bc 243d f13b 39b7 b3bc
000000e0: 659f 04bc 992d b03c 771d 92bc 3d40 ebbc
000000f0: dcb0 ff3c 1c14 11bc 1324 acbc f87e ec3b
00000100: 4edc 3bbc 787c 8dbb 835c bdbc 72c6 6ebc
00000110: 9f39 2a3c 3ee4 25bc 0990 b6bb 4d04 e23a
00000120: 3ddb 29bd bc1f cbbc ce40 d5bb 0dcc 0abd
00000130: 4f5f 61bc 81b1 6c3c 08c9 60bb 7952 cebb
00000140: cac5 ba3c bb5f bc3b 1f88 483a 53b0 a93b
00000150: 0e66 653b 0240 353c 79fb 0a3c 7e5a 983b
00000160: c5e3 8c3a e4c4 c43c ce8b 54bc a747 0bbc
00000170: 663a 403c 203f d9bb df01 e73b 18e9 b63c
00000180: 6e44 0b3c a8c3 173c 6a81 1abc b865 a6bc
00000190: 89a1 14bd 4e44 c4bc 8f31 95bb eed5 80bc
000001a0: 18f0 0a3c 2142 47bc 260e fd3b edd4 b93c
000001b0: d84d 9b3b 931f 873c 1599 cf3b ed7e 003c
000001c0: 076a b43b d9ba 043a 4250 dd3c 66f3 a93c
000001d0: d659 e13b 184f 50bc 7fc3 a4bc c2e1 72bc
000001e0: a576 0dbd c9f4 9dbc 13f1 79bc 5dbf fdbc
000001f0: 7529 093a b99e 833c d375 42bc 2757 13bc
00000200: 6115 563b 2202 b7bb ae8f 3ebc 1961 74bc
00000210: f477 d33c b0bb 873c e94a 5bba d430 0e3c
00000220: 3c6f 25bc a3d0 8ebc 7c1b 06bc 9301 e8bc
00000230: 4b2b cbbc d4be 0abb 6769 82bc 1289 8abc
00000240: 5fc9 013d c674 243d c866 873c fbf5 843c
00000250: e94b 8c39 e02a bd3b 818b 35bc 20d0 1bbd
00000260: 63fc 9dbc 129c 513c e826 433c e83d 18b9
00000270: 2982 3c3b 2fd6 efbb 5460 36bc 3f84 45bd
00000280: a76d 24bd 147e ccbc abb5 613c ad06 893c
00000290: 9f94 1cba 2666 ad3b 5ee6 d63c b929 023c
000002a0: 1139 8dbb 314f d23c ebd4 8b3c 9578 53bc
000002b0: c665 c6bb fad9 403c 7a61 93bb 9fd7 143c
000002c0: 4773 a33c 34c2 a5bb a92a 02bb dca3 ac3c
000002d0: 1b66 d1bb 22b8 0b3c 483e 383d d74d 6fbc
000002e0: d9da fbbb 7397 bf3c 4dee 19bc 8104 57bc
000002f0: 500e c73c 0015 b4bc 43f8 9ebc 34fa 343c
00000300: 4783 24bc 562b 39bc e083 ba3c f29c 91bc
00000310: 0eba 26ba dff9 c33c 458a db3b c316 ef3b
00000320: bae1 83bc abdd 17bb 1f05 213c e473 e3bb
00000330: 032f e13b b0fc 573c 5960 e3ba 9821 ccbc
00000340: 0646 53bb 146e 0bbc 7e85 20bb b7b9 f0bb
00000350: 3fe8 e53b 372c 8a37 c00c fabb d8e1 2ebc
00000360: 252e dabc 7ea3 e1bc 54df a9bc 08f7 2bbc
00000370: 28b7 7ebb 0bd4 ad3b c431 37bc 54ec 9dbc
00000380: 1575 2abc 336f 74bc 2682 bebb 8f1a 0cbc
00000390: 3356 b13b aad1 17bb 2bc5 2fbb 0fcb 603b
000003a0: 4854 82ba 1580 6ebc d075 1c3c 6f94 5c3c
000003b0: 42a1 493c 545d ba3b f844 0d3c bc4c bbbb
000003c0: 9e18 5f3c f554 023c 3aed ad3b ff3b cbbc
000003d0: 94ec 09bd 5d80 463b 3c7f e2ba 49b8 32bc
000003e0: 4183 e039 be0f 2e3c 16c0 1dbc 37b8 06bc
000003f0: c07b 68bc 3cb0 8bbc ce75 a6ba 9d2c 67ba

stage2.block1.bn2.weight f4 [32]
0.103711285 0.08959502 0.10453 0.07937693 0.09572217 0.11175613 0.07951706 0.11435056
0.10052118 0.10218854 0.1076963 0.1025064 0.10139257 0.12615703 0.09613118 0.10468848
0.08480981 0.13461699 0.081639424 0.0972499 0.11310545 0.11352576 0.10638139 0.10960689
0.1100512 0.0898137 0.105593964 0.10040271 0.110817425 0.10049781 0.085454576 0.108205184
00000000: 9566 d43d 987d b73d d313 d63d 5f90 a23d
00000010: fc09 c43d 66e0 e43d d7d9 a23d a030 ea3d
00000020: 0cde cd3d 3a48 d13d e18f dc3d e0ee d13d
00000030: e8a6 cf3d 4f2f 013e 6de0 c43d ea66 d63d
00000040: c4b0 ad3d 09d9 093e 9232 a73d f52a c73d
00000050: d5a3 e73d 3280 e83d 7cde d93d 9479 e03d
00000060: 8662 e13d 3ff0 b73d a641 d83d f09f cd3d
00000070: 3ff4 e23d ccd1 cd3d cf02 af3d ae9a dd3d

stage2.block1.bn2.bias f4 [32]
-0.025227116 -0.02679529 -0.031680115 -0.022229908 -0.022198731 -0.008182514 -0.015856538 -0.037530858
-0.018871041 -0.010841976 -0.032714598 -0.014198388 -0.052998774 -0.033804107 -0.028910413 -0.027044889
-0.03746791 -0.030800046 0.003558736 -0.025438132 -0.0111440485 -0.030684678 -0.047650322 -0.04213331
-0.0038762116 -0.04605182 -0.017116297 -0.0013619334 -0.0116880825 -0.017007977 -0.030322962 -0.015337184
00000000: 19a9 cebc cc81 dbbc 02c3 01bd 7f1b b6bc
00000010: 1dda b5bc f40f 06bc 92e5 81bc f5b9 19bd
00000020: 7197 9abc 8ba2 31bc beff 05bd 5ba0 68bc
00000030: 3e15 59bd 2d76 0abd 88d5 ecbc 3e8d ddbc
00000040: f477 19bd 6150 fcbc af39 693b a163 d0bc
00000050: 8795 36bc 6f5e fbbc fc2c 43bd fa93 2cbd
00000060: 0a08 7ebb d5a0 3cbd 7a37 8cbc e782 b2ba
00000070: 5f7f 3fbc 5054 8bbc dc67 f8bc d048 7bbc

stage2.block1.bn2.running_mean f4 [32]
-0.02762643 -0.0064526293 -0.014800753 0.0026016568 -0.00080570695 -0.029506108 0.011494881 0.0037857029
0.00871048 0.0067806076 7.284606e-05 -0.025606558 0.0025666219 -0.0030519192 -0.0052564773 -0.009688716
0.0059257927 -0.027312094 -0.009339786 -0.009716764 -0.02404795 -0.017093284 0.016253745 -0.003230652
-0.021174163 0.019839644 -0.019908177 -0.013615984 0.0027639824 -0.035087835 -0.014669298 -0.04052874
00000000: d350 e2bc 9470 d3bb dc7e 72bc 8f80 2a3b
00000010: 1436 53ba cbb6 f1bc 0655 3c3c 8e19 783b
00000020: 67b6 0e3c dc2f de3b eec4 9838 d8c4 d1bc
00000030: c534 283b b502 48bb 873e acbb 6cbd 1ebc
00000040: 272d c23b 9dbd dfbc e705 19bc 1033 1fbc
00000050: 3500 c5bc 3707 8cbc 9326 853c 59b9 53bb
00000060: 7075 adbc c086 a23c 7916 a3bc 9315 5fbc
00000070: ee23 353b 43b8 0fbd 7f57 70bc 7701 26bd

stage2.block1.bn2.running_var f4 [32]
0.0005009469 0.00036395248 0.00033965052 0.0003786444 0.0004740145 0.0006440586 0.00063265377 0.00047612886
0.00071145606 0.00057028176 0.0003654981 0.0005365066 0.0006408228 0.00066481193 0.000390691 0.0004359427
0.00029868583 0.00078594004 0.0004558683 0.00058577216 0.00058892096 0.0006333118 0.0004770019 0.00062459597
0.00060626864 0.00041746 0.0006533831 0.0005263586 0.00049582537 0.0003482965 0.00050214643 0.0007301785
00000000: fa51 033a e0d0 be39 1f13 b239 cb84 c639
00000010: 2685 f839 0ad6 283a add8 253a efa0 f939
00000020: 0281 3a3a f67e 153a 53a0 bf39 59a4 0c3a
00000030: e4fc 273a c646 2e3a a9d5 cc39 3d8f e439
00000040: ef98 9c39 8b07 4e3a 9c01 ef39 818e 193a
00000050: d161 1a3a d604 263a 1c16 fa39 edbb 233a
00000060: 00ee 1e3a 88de da39 cc47 2b3a 54fb 093a
00000070: 47fa 013a 919b b639 7aa2 033a 7369 3f3a

stage2.block1.conv2.weight f4 [32, 32, 3, 3]
-0.022371564 0.017167874 -0.008101423 0.027669081 0.0017730437 -0.010234467 0.014242567 -0.017888768
-0.0034842934 -0.024107575 0.010186268 0.008247221 -0.019391824 -0.002184652 0.0023351936 0.0051270826
0.014046919 -0.01959866 -0.022961833 -0.01695377 -0.004900943 -0.0071458784 -0.002788073 0.0022036254
0.0083246045 -0.0069141304 0.010972553 0.0026656813 -0.016446237 -0.016876325 0.00021161951 -0.0048724944
-0.015064387 -0.021680312 -0.0072073694 -0.0018884022 -0.050626542 -0.028024452 -0.021993985 0.009748356
0.015589717 -0.018588528 0.016894469 0.006095352 -0.013165053 0.010767684 -0.0115522165 0.0012134775
0.00015646871 -0.00011942907 -0.008811507 -0.020536022 -0.018901106 -0.021084225 -0.0023876764 -0.026022296
-0.013566714 8.759674e-05 -0.010476877 -0.0035987245 0.036714796 0.016763195 -0.009812815 -0.016576339
-0.0062527196 0.0049733245 -0.0051188776 -0.002636268 -0.00039245604 -0.028652977 -0.014747934 0.00049650396
0.031230304 0.0112660695 0.010611284 -0.007793942 -0.0026631518 -0.026804047 -0.00908087 -0.018121442
-0.02633429 0.015079338 -0.015252297 -0.008052347 -0.033404425 -0.001718597 0.026637884 0.019099927
0.017396959 0.035236977 -0.0042053526 -0.010242401 0.00028467242 -0.009031823 -0.01314687 0.01896296
0.0210418 -0.0042579263 0.0067451773 0.023647284 -0.025472902 -0.019124273 -0.0034444188 -0.014307772
-0.0066526243 0.005156988 -0.015939863 -0.008358769 0.012415994 -0.02226369 -0.013873574 -0.0063046445
0.0002914294 -0.0004769176 0.020784566 0.007272352 -0.015235478 0.008040697 0.019898584 -0.026189255
0.0043355073 -0.0009168574 0.010196164 0.0083102975 -0.009738727 0.015631173 0.010295951 0.005805361
0.026413478 0.0041008005 0.0043333587 -0.009607184 -0.005573489 0.023486827 -0.004465032 0.019644339
0.009832402 -0.04585994 0.025965093 -0.018488077 -0.017197683 0.0033293038 0.012792703 0.010326437
0.048434302 -7.750796e-05 -0.025677722 -0.0042671976 -0.022800958 -0.03562303 -0.00073392835 -0.0043306053
-0.018985642 -0.04046332 -0.019075204 -0.0009242928 -0.013150069 -0.004461196 -0.0060945493 0.001560537
-0.009519051 -0.020930761 0.0689551 -0.00609619 -0.016950283 0.021819752 -0.00569166 -0.0027037233
-0.0020259516 -0.00039990875 -0.0012645337 -0.015358047 0.031772 0.0330589 0.006724235 0.010233999
0.013371317 0.008961945 -0.001821126 -0.021455234 -0.0034458612 0.02982589 0.008275145 0.007234407
-0.0062097637 -0.0050174217 -0.033526465 -0.019973213 -0.034553528 0.011442697 0.0022621148 -0.0032152222
0.0019250977 0.0037373742 -0.027909534 0.010520283 -0.028027585 -0.024816021 0.014544095 0.0025068077
-0.010611379 0.0040226695 -0.037279073 -0.02733785 0.009854104 -0.029175177 0.001643837 -0.012682541
-0.004081516 0.00039916844 0.00011713342 -0.008464467 0.019808289 0.004018709 -0.0028254574 -0.0011468371
0.0033820095 -0.017903201 -0.016682856 0.011399865 0.023741309 -0.010773233 -0.0066544795 -0.00054015586
0.0091888085 0.0014079766 -0.0082235765 -0.008656295 0.008017749 -0.0025258493 -0.011804927 0.00020402446
-0.004156282 -0.0039083585 0.031131892 0.014242941 -0.050870176 -0.0033751228 -0.034055896 -0.020272082
0.014868977 -0.0019018236 -0.027598282 -0.022301335 -0.0042169364 -0.0078059053 -0.027952898 -0.0100127375
0.0003191445 -0.009441474 0.0021894735 0.00056887185 -0.020523509 -0.018785538 -0.014542467 0.023901267
00000000: 9244 b7bc a4a3 8c3c d5bb 04bc 45aa e23c
00000010: 7965 e83a 77ae 27bc a859 693c 778b 92bc
00000020: be58 64bb 407d c5bc 4ee4 263c 5a1f 073c
00000030: 9adb 9ebc 612c 0fbb 0c0a 193b 1601 a83b
00000040: 0c25 663c 5e8d a0bc 741a bcbc a2e2 8abc
00000050: 1798 a0bb f927 eabb 1ab8 36bb b36a 103b
00000060: ec63 083c ee8f e2bb 39c6 333c b6b2 2e3b
00000070: 42ba 86bc 3840 8abc 2ee6 5d39 72a9 9fbb
00000080: 9ed0 76bc e99a b1bc cc2b ecbb 4384 f7ba
00000090: c75d 4fbd 8993 e5bc bb2c b4bc 92b7 1f3c
000000a0: 036c 7f3c f846 98bc 4566 8a3c 85bb c73b
000000b0: 3cb2 57bc f16a 303c 8245 3dbc 8c0d 9f3a
000000c0: c011 2439 fe75 fab8 245e 10bc 293b a8bc
000000d0: 7ed6 9abc d3b8 acbc 907a 1cbb b62c d5bc
000000e0: ec46 5ebc 24b4 b738 35a7 2bbc 94d8 6bbb
000000f0: 4162 163d f852 893c eec5 20bc 1acb 87bc
00000100: 9de3 ccbb 45f7 a23b 42bc a7bb 3dc5 2cbb
00000110: 8fc2 cdb9 a6b9 eabc 52a1 71bc d127 023a
00000120: b2d6 ff3c 5295 383c f3da 2d3c 5364 ffbb
00000130: 4688 2ebb 2994 dbbc eec7 14bc 6b73 94bc
00000140: 02bb d7bc 540f 773c c5e4 79bc feed 03bc
00000150: 14d3 08bd 8c42 e1ba b137 da3c 7377 9c3c
00000160: 1184 8e3c a654 103d 0ecd 89bb becf 27bc
00000170: 1640 9539 36fa 13bc f865 57bc 3658 9b3c
00000180: da5f ac3c 1386 8bbb a606 dd3b f3b7 c13c
00000190: 8cac d0bc 82aa 9cbc c2bb 61bb 256b 6abc
000001a0: 42fe d9bb f3fb a83b 5194 82bc 38f3 08bc
000001b0: 746c 4b3c 5862 b6bc fd4d 63bc 3197 cebb
000001c0: feca 9839 cc0a fab9 6544 aa3c e94c ee3b
000001d0: 3a9e 79bc 21bd 033c 5b02 a33c d98a d6bc
000001e0: df10 8e3b 4259 70ba d00d 273c ea27 083c
000001f0: 2e8f 1fbc f20c 803c 59b0 283c e63a be3b
00000200: 1461 d83c 0260 863b d9fe 8d3b 7367 1dbc
00000210: d0a1 b6bb 7267 c03c 674f 92bb 2aed a03c
00000220: 1518 213c a2d7 3bbd bfb4 d43c 4f74 97bc
00000230: 28e2 8cbc 7330 5a3b 7c98 513c 3730 293c
00000240: 0c63 463d c58b a2b8 165a d2bc d9d3 8bbb
00000250: 13c9 babc 74e9 11bd 1965 40ba c0e7 8dbb
00000260: c787 9bbc debc 25bd 9a43 9cbc 3d4c 72ba
00000270: 6373 57bc 392f 92bb c9b4 c7bb ef8a cc3a
00000280: cbf5 1bbc fd76 abbc 5538 8d3d 8cc2 c7bb
00000290: 52db 8abc 56bf b23c 1b81 babb f330 31bb
000002a0: d4c5 04bb d8aa d1b9 b6be a5ba 51a0 7bbc
000002b0: 5b23 023d c568 073d f956 dc3b 81ac 273c
000002c0: 5e13 5b3c 1fd5 123c d9b2 eeba e3c2 afbc
000002d0: f5d3 61bb 6d55 f43c 7994 073c 9b0e ed3b
000002e0: 467b cbbb 2f69 a4bb 0c53 09bd dd9e a3bc
000002f0: 0088 0dbd 267a 3b3c fd3f 143b 7ab6 52bb
00000300: 8f53 fc3a bcee 743b 89a2 e4bc 445d 2c3c
00000310: 1b9a e5bc f84a cbbc 5b4a 6e3c 4149 243b
00000320: 59db 2dbc 99d0 833b f1b1 18bd a0f3 dfbc
00000330: 1c73 213c c800 efbc 0476 d73a 6fca 4fbc
00000340: 3dbe 85bb 7b47 d139 87a5 f538 8cae 0abc
00000350: fe44 a23c 60af 833b 4f2b 39bb 7851 96ba
00000360: b4a4 5d3b bca9 92bc 7caa 88bc 80c6 3a3c
00000370: 227d c23c 3782 30bc d20d dabb 3f99 0dba
00000380: a88c 163c db8b b83a 2ebc 06bc 22d3 0dbc
00000390: e05c 033c b888 25bb 7469 41bc 66ef 5539
000003a0: 6c31 88bb b011 80bb 4f08 ff3c 395b 693c
000003b0: 3f5d 50bd 2a31 5dbb 327e 0bbd a311 a6bc
000003c0: 029d 733c 9c46 f9ba cb15 e2bc 4ab1 b6bc
000003d0: 3a2e 8abb aec8 ffbb 7afd e4bc 770c 24bc
000003e0: da52 a739 6ab0 1abc 457d 0f3b 5820 153a
000003f0: eb20 a8bc 21e4 99bc 8743 6ebc 97cc c33c

stage2.block1.shortcut.conv.weight f4 [32, 16, 1, 1]
0.015235908 0.0037632675 -0.014601854 -0.017342124 0.011068541 -0.009395296 -0.021759016 -0.028419876
-0.002301686 -0.016137272 0.009702068 -0.014681193 -0.0024181334 -0.007976671 0.011804381 -0.013880763
0.021673774 0.009764218 -0.015979564 0.023072924 0.018686537 0.0113643585 -0.027812963 0.0018693178
0.012848534 0.006583595 -0.0126416255 0.019639334 0.045783345 0.005318854 0.04150437 -0.008859123
0.009777322 -0.011370793 0.0076698703 -0.002730222 0.020406958 -0.012679828 0.008210567 0.015141911
-0.026778916 -0.0068374723 -0.004707747 0.02266302 -0.00405993 -0.000655973 -0.035861406 0.011228661
0.044345044 -0.010058843 -0.021979589 -0.0278496 -0.041576866 0.018215884 0.020003099 -0.011507288
-0.017321885 0.021064384 0.02382195 0.05099662 0.0103253005 0.011250997 -0.023978401 0.030650608
0.006769986 -0.021916363 -0.013685482 -0.022367291 0.023324583 0.012136325 -0.015155562 -0.0038646718
0.010090525 -0.016266776 0.012058669 -0.031268116 -0.023720372 -0.019467857 -0.016542174 -0.00788844
-0.002396717 -0.03528774 -0.0024167383 0.010304092 -0.009627862 -0.0018803049 0.008524833 0.0052733435
0.03724822 0.002743983 -0.004337437 -0.017958235 0.00090845424 0.0086652925 0.0039593317 0.022433924
-0.039629053 -0.032004844 -0.015362671 -0.009654156 -0.038050506 -0.017642787 -0.0052792714 -0.016840687
0.0138816135 -0.022928633 -0.005121067 -0.023788039 0.013104998 0.0070996624 0.0064177257 0.011269713
-0.005576273 -0.037214994 0.011923028 0.004739329 0.022489058 0.0032612744 0.005090423 0.040062394
-0.01911336 0.014531655 0.0010025132 -0.005961345 -0.020301959 -0.009680609 0.009953878 -0.012930672
0.026287097 0.022626959 -0.006225506 -0.011618286 -0.022850985 0.007933054 -0.0042475597 -0.04578989
-0.0010135765 -0.019641748 0.041176233 0.01646555 0.00068048574 0.002235757 -0.027527012 0.006865428
0.02087873 -0.02165134 -0.0235047 0.023850054 -0.0016325234 -0.00014998068 0.021370443 0.0016566564
-0.0008304203 0.017233664 -0.017921036 -0.004175484 -0.019740703 0.013540473 -0.0034795115 -0.025580354
-0.015764086 -0.0045893225 -0.023840921 0.029370626 -0.003938455 -0.007691605 -0.031062204 -0.015875904
-0.010785146 -0.0024629037 0.019612169 -0.005915861 -0.0007995653 -0.0103799 0.036829263 -0.0062751947
-0.003681993 0.020269034 -0.012607564 0.010646409 -0.026640518 -0.022551872 -0.028359743 -0.008510641
0.009593919 -0.006994834 0.0019295275 -0.0038551304 0.02559457 -0.006556105 -0.0068584606 -0.0009227615
0.0043743164 0.023863766 0.0132691385 -0.011280315 0.018878657 -0.026425062 0.007818869 -0.0056081787
-0.0076110507 0.022176772 -0.009391929 0.027107794 -0.004810705 -0.008188954 -0.022456508 0.014371559
0.011827884 0.0074633057 -0.021982167 -0.01415501 0.008874655 0.017126348 -0.016412595 0.009811842
0.00013851184 -0.007885136 -0.041183576 0.009157934 -0.012254122 -0.017896188 -0.01949649 0.010224555
-0.022700408 0.0083208755 -0.026718143 0.02076537 -0.020549476 0.007254744 -0.009081193 0.021345424
-0.02333839 -0.0015288534 -0.032623343 0.0031469162 -0.038238518 0.017696442 -0.020179888 0.010996055
0.017797181 0.016521031 0.016810128 -0.01730234 -0.02355521 -0.0019238774 0.020072315 0.0045155464
-0.024747944 -0.008395931 0.010874703 -0.0028931338 0.02868246 -0.02075099 -0.0032481567 -0.0049068257
00000000: 08a0 793c 27a1 763b 9d3c 6fbc 1211 8ebc
00000010: d358 353c baee 19bc f73f b2bc cdd0 e8bc
00000020: e2d7 16bb 5032 84bc 6cf5 1e3c 6389 70bc
00000030: 8c79 1ebb 95b0 02bc 2a67 413c 246c 63bc
00000040: 338d b13c 19fa 1f3c 93e7 82bc 6e03 bd3c
00000050: 8214 993c 9331 3a3c 03d8 e3bc e603 f53a
00000060: a882 523c 33bb d73b d21e 4fbc abe2 a03c
00000070: 5187 3b3d c849 ae3b 7c00 2a3d db25 11bc
00000080: 1031 203c 904c 3abc 8953 fb3b 86ed 32bb
00000090: 7e2c a73c 0ebf 4fbc 9d85 063c c715 783c
000000a0: 755f dbbc e00c e0bb 7243 9abb cca7 b93c
000000b0: 2909 85bb 9af5 2bba 69e3 12bd 6bf8 373c
000000c0: 26a3 353d d8cd 24bc 8a0e b4bc d824 e4bc
000000d0: 814c 2abd 7a39 953c 8add a33c 1089 3cbc
000000e0: a0e6 8dbc 378f ac3c 4026 c33c d5e1 503d
000000f0: 732b 293c 1a56 383c 5a6e c4bc fc16 fb3c
00000100: c2d6 dd3b f289 b3bc 1239 60bc 9c3b b7bc
00000110: 3213 bf3c 70d7 463c 094f 78bc 6f46 7dbb
00000120: bb52 253c e741 85bc b991 453c ff12 00bd
00000130: 3a51 c2bc 0e7b 9fbc 7483 87bc 843e 01bc
00000140: 3d12 1dbb e189 10bd 2462 1ebb 7fd2 283c
00000150: 2ebe 1dbc 9074 f6ba beab 0b3c 03cc ac3b
00000160: 9791 183d 65d4 333b 0f21 8ebb 261d 93bc
00000170: 5525 6e3a dff8 0d3c 48bd 813b 59c7 b73c
00000180: 1352 22bd 8317 03bd b6b3 7bbc 772c 1ebc
00000190: d9da 1bbd 9b87 90bc bdfd acbb 7bf5 89bc
000001a0: b56f 633c d4d4 bbbc a0ce a7bb 22df c2bc
000001b0: 58b6 563c 49a4 e83b c94b d23b 9aa4 383c
000001c0: 2bb9 b6bb c06e 18bd ce58 433c 604c 9b3b
000001d0: f93a b83c 1bbb 553b 90cd a63b 7718 243d
000001e0: 9f93 9cbc 2e16 6e3c c366 833a 6357 c3bb
000001f0: 4b50 a6bc 6b9b 1ebc 9715 233c 2bdb 53bc
00000200: 0a58 d73c 2c5c b93c 54ff cbbb a05a 3ebc
00000210: fd31 bbbc a4f9 013c 1d2f 8bbb 2e8e 3bbd
00000220: fcd9 84ba bbe7 a0bc 69a8 283d c3e2 863c
00000230: a062 323a c785 123b 5480 e1bc 62f7 e03b
00000240: df09 ab3c 275e b1bc ee8c c0bc 3061 c33c
00000250: 65fa d5ba 2244 1db9 1111 af3c 2a24 d93a
00000260: 90b0 59ba 9d2d 8d3c 23cf 92bc 80d2 88bb
00000270: 41b7 a1bc dcd8 5d3c 8408 64bb e48d d1bc
00000280: af23 81bc 0762 96bb 094e c3bc ab9a f03c
00000290: 280e 81bb dc09 fcbb 2a76 febc 2f0e 82bc
000002a0: 2eb4 30bc ab68 21bb b3a9 a03c d7d9 c1bb
000002b0: eb99 51ba 7510 2abc 48da 163d 26a0 cdbb
000002c0: 984d 71bb 3f0b a63c f58f 4ebc 476e 2e3c
000002d0: 373d dabc b4be b8bc b152 e8bc 3770 0bbc
000002e0: d02f 1d3c ec34 e5bb 33e8 fc3a 5ba6 7cbb
000002f0: b4ab d13c 98d4 d6bb f0bc e0bb 7ae5 71ba
00000300: 6d56 8f3b f27d c33c cd66 593c 12d1 38bc
00000310: 6aa7 9a3c 5f79 d8bc b71a 003c d0c4 b7bb
00000320: 1f66 f9bb 10ac b53c 9be0 19bc 2a11 de3c
00000330: 1ea3 9dbb f62a 06bc b6f6 b7bc b076 6b3c
00000340: bec9 413c bf8e f43b f213 b4bc 6aea 67bc
00000350: 0067 113c 8e4c 8c3c b573 86bc d9c1 203c
00000360: 7d3d 1139 a830 01bc 1cb0 28bd 290b 163c
00000370: 83c5 48bc 079b 92bc 1ab7 9fbc e484 273c
00000380: 35f6 b9bc 4854 083c 02e0 dabc 231c aa3c
00000390: 6057 a8bc 34b9 ed3b 49c9 14bc 99dc ae3c
000003a0: 2730 bfbc cf63 c8ba 0ea0 05bd 7e3c 4e3b
000003b0: fe9f 1cbd 21f8 903c 4b50 a5bc cc28 343c
000003c0: 65cb 913c 1d57 873c 65b5 893c a3bd 8dbc
000003d0: dbf6 c0bc 9d2a fcba b26e a43c 26f7 933b
000003e0: 33bc cabc 168f 09bc cf2b 323c bb9a 3dbb
000003f0: 7af7 ea3c fbfd a9bc 07df 54bb 70c9 a0bb

stage3.block1.bn1.weight f4 [32]
0.08797138 0.08790406 0.1039194 0.13167292 0.103735946 0.08553143 0.10021314 0.086450994
0.09285826 0.091943465 0.09949656 0.0937149 0.10218023 0.09208505 0.08486361 0.107127346
0.07319635 0.10274461 0.08977534 0.09094453 0.089420915 0.09858216 0.10022984 0.10428883
0.10720438 0.09701795 0.098470576 0.09260347 0.10800301 0.090953164 0.093432724 0.09622218
00000000: 572a b43d 0b07 b43d b2d3 d43d 44d5 063e
00000010: 8373 d43d 1a2b af3d 8c3c cd3d 380d b13d
00000020: 792c be3d db4c bc3d dac4 cb3d 99ed bf3d
00000030: de43 d13d 1697 bc3d f9cc ad3d 9565 db3d
00000040: f8e7 953d c46b d23d 22dc b73d 2041 ba3d
00000050: 5022 b73d 72e5 c93d 4d45 cd3d 6295 d53d
00000060: f88d db3d 59b1 c63d f1aa c93d e3a6 bd3d
00000070: af30 dd3d a745 ba3d a859 bf3d 2210 c53d

stage3.block1.bn1.bias f4 [32]
-0.0060024676 -0.02389482 -0.053577647 -0.08659354 -0.05474226 -0.014688166 -0.02382492 -0.010627835
-0.02438433 -0.04361242 -0.04937795 -0.049815614 -0.04278041 -0.041164853 -0.029081555 -0.05050135
-0.018370343 -0.052511424 -0.041798674 -0.03159475 -0.047562916 -0.07012277 -0.021026373 -0.030593326
-0.03620089 -0.04020264 -0.035026953 -0.02809274 -0.07940174 -0.021374224 -0.032317918 -0.019474212
00000000: 59b0 c4bb 12bf c3bc 3c74 5bbd f457 b1bd
00000010: 6c39 60bd a2a6 70bc 7b2c c3bc 5f20 2ebc
00000020: a5c1 c7bc f0a2 32bd 8940 4abd 750b 4cbd
00000030: 833a 2fbd 7a9c 28bd 713c eebc 81da 4ebd
00000040: 677d 96bc 3816 57bd 1635 2bbd 7f69 01bd
00000050: 55d1 42bd 879c 8fbd 803f acbc db9e fabc
00000060: 6247 14bd 86ab 24bd 6c78 0fbd bf22 e6bc
00000070: 619d a2bd ff18 afbc cb5f 04bd 6288 9fbc

stage3.block1.bn1.running_mean f4 [32]
-0.021959705 -0.017093202 -0.017340701 -0.022055617 -0.021306697 -0.016007563 -0.010759522 -0.014077
-0.0050939093 0.0011788177 -0.021861803 -0.020511849 0.0063296407 -0.0033803664 -0.02363269 -0.018196408
-0.006490718 -0.0022201638 0.0013898957 -0.011320441 -0.016927447 0.00045023704 -0.02718918 -0.042800207
-0.013510949 2.571887e-06 -0.011646941 -0.0032808648 -0.010224063 -0.010076086 -0.032145463 -0.009994224
00000000: d7e4 b3bc 0b07 8cbc 160e 8ebc fbad b4bc
00000010: 628b aebc 4b22 83bc b548 30bc 38a3 66bc
00000020: cfea a6bb 8f82 9a3a 8617 b3bc 7708 a8bc
00000030: e068 cf3b 2389 5dbb 5899 c1bc a210 95bc
00000040: 17b0 d4bb 2b80 11bb 292d b63a 5f79 39bc
00000050: 6eab 8abc cb0d ec39 d8bb debc 454f 2fbd
00000060: 075d 5dbc af98 2c36 d0d2 3ebc c703 57bb
00000070: d482 27bc 2b16 25bc f6aa 03bd d0be 23bc

stage3.block1.bn1.running_var f4 [32]
0.0005113718 0.000693606 0.00043358732 0.0008863021 0.0005665428 0.0005083087 0.0006557428 0.00049119967
0.00051911076 0.0005490672 0.0006200704 0.00046448532 0.00047849212 0.0005175645 0.00048218638 0.000521221
0.00055705704 0.00057164626 0.0004898847 0.0005213753 0.00036652232 0.0005611354 0.0007487756 0.0006035135
0.0006436849 0.00050118973 0.00049297913 0.00059608184 0.0005979381 0.00062008714 0.000533353 0.00059902185
00000000: 950d 063a 1cd3 353a 1b53 e339 ba56 683a
00000010: 0b84 143a 0540 053a 28e6 2b3a dac3 003a
00000020: ef14 083a 47ef 0f3a 388c 223a 2a86 f339
00000030: 20de fa39 2aad 073a f6cd fc39 8da2 083a
00000040: 7707 123a 88da 153a 9b6b 003a e7ac 083a
00000050: cb29 c039 2919 133a 7b49 443a 1b35 1e3a
00000060: f6bc 283a 4662 033a 453b 013a 6042 1c3a
00000070: f2be 1c3a 588d 223a b7d0 0b3a ad07 1d3a
